Red.pt (torch_old, 194524 bytes, 6 tensors)

weight f4 [300, 2]
-0.36456847 -0.09926343 0.02070564 -0.6831219 0.10283142 -0.58076084 -0.8341692 0.8065377
-0.027801752 -0.33011374 0.91724586 0.75462335 0.7195118 0.01773511 0.4610663 -0.5881843
-0.15545091 0.68215764 0.30500725 0.39494902 0.62304294 -0.6189413 0.68190444 0.5009487
0.13585056 -0.8592081 0.88657415 0.6603526 0.39567906 -0.75146294 0.812856 0.34836686
-0.31522563 -0.33579776 -0.18639779 -0.28137675 0.8145799 0.52481943 -0.4033065 0.47528026
0.716085 -0.59524655 0.8552179 -0.28953055 0.07732713 -0.2936418 -0.6782926 -0.4369505
0.7727993 -0.29229242 0.39999124 -0.41858652 0.7120842 0.5874548 0.6739205 -0.72573215
-1.4318316 -0.13914472 -0.7178012 -0.01764988 -0.05637008 -0.34648377 -0.7994444 0.88769144
0.02629309 0.9384524 -0.32085592 0.9411615 0.07628107 -0.5453966 -0.36583608 0.31289223
0.8012646 0.35041475 -0.109250724 -0.13434535 -0.51914066 0.31941828 -0.29317224 -0.79464716
0.64527446 -0.3163957 -0.34394997 -0.31738797 0.6450201 -0.25845507 -0.79710364 0.39822593
-0.7821853 0.11002705 0.9075052 -0.42760155 -0.039845824 0.23897439 -0.26138672 0.7416019
0.16613662 -0.40233624 0.43883932 0.79181 -0.007886303 0.7182755 0.5656652 -0.30838883
-0.6144385 0.017430305 0.46785995 -0.22730142 0.095303714 -0.054165184 -0.6316802 0.27624908
-0.05999732 0.045253515 0.91171265 -0.44064358 -0.094760746 0.80500716 -0.5260918 0.3042286
0.03221947 -0.41019335 0.00086358667 0.7462122 0.7772113 0.5635362 0.8510101 -0.31182346
0.9484505 -0.29269648 -0.6039872 0.0646895 -0.5136101 -0.013871205 -0.38048613 -1.6932381
0.010269642 -0.051327884 0.8310405 -0.11651195 -0.55542755 0.8844436 -0.36641246 0.5543619
-0.7831329 0.567149 0.6049268 0.64043605 0.44425738 0.8901098 0.657288 0.5121362
0.62817854 -0.30202588 -0.31468993 0.18516982 -0.44759884 0.6139603 -0.67379725 0.059696436
0.48404786 0.7921192 0.12445629 0.18371457 -0.8298094 0.46686 -0.32500225 -0.47288698
0.14623344 -0.60254043 0.22395153 -0.30592513 -0.35864532 -0.3126637 -0.53311294 0.39819223
0.45541388 -0.6323418 -0.33211184 -0.35404557 -0.06538278 0.7044032 -0.58294815 0.60851073
-0.273604 0.2780463 -0.3026282 -0.5954445 0.4821366 0.16492756 -0.44252124 -0.23115516
-0.83110493 -0.10987372 0.12997109 0.25902212 -1.310167 0.02658092 0.7193825 -0.9943507
-0.36341405 0.42086056 -0.7027893 -0.4864177 -0.022958506 0.42419934 -0.19350874 -0.5539178
-0.0242567 -0.89681244 -0.47876525 -0.30733052 0.52219075 0.68989724 0.5954728 -0.5461717
-0.011738449 0.7372186 0.8058178 0.5678203 0.8381536 0.71266735 -0.5135008 0.32778466
0.010273241 0.690277 -0.17150274 0.88998276 0.02977711 -0.45622343 -0.7521214 0.05003411
0.1864025 -0.41569528 -0.29737306 -0.38944918 -0.636533 -0.55791277 0.10057657 0.73143286
-0.23100829 0.6410466 0.50658673 0.8132378 0.6855229 -0.22319269 0.7473096 -0.010554367
0.021465002 0.8997396 0.1575931 -0.6422164 -0.40374658 -0.24913651 -0.5711765 -0.3142084
00000000: b8a8 babe a04a cbbd e09e a93c 14e1 2ebf
00000010: 4899 d23d beac 14bf 1d8c 55bf 4179 4e3f
00000020: 80c0 e3bc ab04 a9be a0d0 6a3f ff2e 413f
00000030: ed31 383f 3949 913c e210 ec3e 3f93 16bf
00000040: 862e 1fbe e2a1 2e3f e929 9c3e c236 ca3e
00000050: be7f 1f3f f072 1ebf 4a91 2e3f 2d3e 003f
00000060: 691c 0b3e 10f5 5bbf 86f6 623f de0c 293f
00000070: 7296 ca3e e05f 40bf 5517 503f 245d b23e
00000080: 4165 a1be afed abbe 10df 3ebe 9d10 90be
00000090: 4f88 503f 915a 063f 317e cebe ef57 f33e
000000a0: 5951 373f 1462 18bf 8fef 5a3f 593d 94be
000000b0: b05d 9e3d 3858 96be 95a4 2dbf fab7 dfbe
000000c0: 2dd6 453f 5aa7 95be a7cb cc3e f950 d6be
000000d0: 264b 363f 7063 163f 0e86 2c3f 95c9 39bf
000000e0: 4246 b7bf f47b 0ebe d2c1 37bf 7b96 90bc
000000f0: 50e4 66bd 5266 b1be 63a8 4cbf bf3f 633f
00000100: 9b64 d73c 6b3e 703f 3a47 a4be f6ef 703f
00000110: 4039 9c3d 1d9f 0bbf de4e bbbe 6933 a03e
00000120: ad1f 4d3f 9069 b33e d8be dfbd d491 09be
00000130: 67e6 04bf cb8a a33e ac1a 96be ff6d 4bbf
00000140: b530 253f 9efe a1be 361a b0be ad80 a2be
00000150: 0a20 253f 3954 84be fc0e 4cbf 45e4 cb3e
00000160: 4c3d 48bf dd55 e13d 4352 683f 97ee dabe
00000170: 6035 23bd b4b5 743e 7bd4 85be 9fd9 3d3f
00000180: b81f 2a3e 04ff cdbe 8caf e03e 0fb4 4a3f
00000190: 8d35 01bc e7e0 373f 6fcf 103f 24e5 9dbe
000001a0: d74b 1dbf 00ca 8e3c 578b ef3e b4c1 68be
000001b0: 982e c33d 50dc 5dbd cbb5 21bf 8570 8d3e
000001c0: c0bf 75bd c05b 393d 0066 693f 099c e1be
000001d0: ec11 c2bd f314 4e3f f4ad 06bf dac3 9b3e
000001e0: 90f8 033d dd04 d2be 5262 623a c307 3f3f
000001f0: 52f7 463f e943 103f ccdb 593f 53a7 9fbe
00000200: a7cd 723f 50dc 95be e89e 1abf ee7b 843d
00000210: f47b 03bf 0d44 63bc 14cf c2be 07bc d8bf
00000220: 0042 283c 303d 52bd 12bf 543f d19d eebd
00000230: 8030 0ebf e56a 623f 6a9a bbbe a9ea 0d3f
00000240: 667b 48bf ad30 113f 7cdc 1a3f 9ef3 233f
00000250: b475 e33e 3cde 633f 0744 283f 5c1b 033f
00000260: 4fd0 203f 23a3 9abe 0a1f a1be 289d 3d3e
00000270: ad2b e5be 812c 1d3f fa7d 2cbf 4084 743d
00000280: 1fd5 f73e 53c8 4a3f f0e2 fe3d ac1f 3c3e
00000290: 646e 54bf 4608 ef3e b266 a6be 3e1e f2be
000002a0: 38be 153e 1740 1abf 8d53 653e 38a2 9cbe
000002b0: 5ca0 b7be 7515 a0be 177a 08bf dadf cb3e
000002c0: 022c e93e 27e1 21bf 900a aabe 7645 b5be
000002d0: 68e7 85bd c553 343f 173c 15bf 5cc7 1b3f
000002e0: d315 8cbe 165c 8e3e 15f2 9abe 0d6f 18bf
000002f0: 9cda f63e c5e2 283e 2592 e2be f0b3 6cbe
00000300: 4bc3 54bf 7905 e1bd 2417 053e 8c9e 843e
00000310: 8db3 a7bf 3bc0 d93c 7429 383f c48d 7ebf
00000320: 6811 babe 097b d73e 00ea 33bf be0b f9be
00000330: 7a13 bcbc a830 d93e 2827 46be 8fcd 0dbf
00000340: fdb5 c6bc 8095 65bf b820 f5be 6d5a 9dbe
00000350: 4bae 053f 1b9d 303f e870 183f e9d1 0bbf
00000360: a052 40bc 5cba 3c3f 134a 4e3f ac5c 113f
00000370: 3c91 563f 5e71 363f ca74 03bf 64d3 a73e
00000380: 1951 283c feb5 303f 6a9e 2fbe e9d5 633f
00000390: 20ef f33c 1e96 e9be 078b 40bf 91f0 4c3d
000003a0: 4ce0 3e3e 03d6 d4be 4841 98be e265 c7be
000003b0: d4f3 22bf 5fd3 0ebf 17fb cd3d 2f3f 3b3f
000003c0: 708d 6cbe a11b 243f abaf 013f 5a30 503f
000003d0: 6e7e 2f3f a08c 64be af4f 3f3f 39ec 2cbc
000003e0: 5fd7 af3c 5655 663f 1660 213e 4b68 24bf
000003f0: dfb7 cebe a41d 7fbe a038 12bf ecdf a0be

bias f4 [300]
-0.26320857 -0.1133489 -0.6027629 -0.20984103 -0.13141024 0.006387634 -0.5790051 -0.6002892
0.3503427 -0.16968691 0.8398095 -0.053770926 0.5647443 -0.39962924 0.47683185 0.7570213
-0.37627625 -0.18587172 0.4552652 0.17025328 0.26878405 0.053035993 -0.37999412 0.80356807
-0.036689237 0.21207887 -0.34993577 -0.15896602 0.24656388 0.7318555 -0.60112077 0.7948739
-0.25937286 -0.0913611 -0.5649235 0.18803824 -0.57355267 -0.08129072 0.72352606 0.7408121
0.68288296 0.63827777 0.6652071 0.44406274 0.5263778 0.5570326 -0.6425563 0.36551166
-0.6434642 0.26517102 -0.53989434 -0.6340802 -0.48618376 0.21509409 -0.21748254 0.66909444
-0.5224283 0.37379515 0.65895736 -0.69189274 -0.53708327 -0.569381 0.4081218 -0.49888253
-0.5876829 0.4222636 0.38943768 0.42021453 -0.34160408 -0.115634024 -0.20452446 -0.70092535
0.39609152 0.15334164 0.81639224 -0.3050473 0.75513005 -0.41580412 0.16803956 -0.6306654
0.42832842 -0.6152333 0.7879536 -0.4051838 -0.29040965 -0.23204792 -0.2814987 -0.526102
0.3095869 -0.6763277 -0.5306457 0.27217713 0.7195523 -0.086994946 -0.20350435 -0.2630379
0.56790876 -0.41010737 0.21892208 0.58057 0.4545466 -0.37668282 -0.09227837 0.50976753
0.667412 -0.58577114 -0.2925702 0.24857312 -0.1784239 0.26863182 0.49011233 0.29778785
-0.53252864 -0.1360015 -0.24509615 0.74775225 -0.29325253 -0.13798046 0.87582433 0.29878455
-0.6743751 -0.33294955 -0.062145416 0.5896129 -0.24641716 0.3851958 -0.45412943 -0.49630368
0.870413 -0.32500935 -0.18972856 -0.1953344 0.52774674 0.4220393 0.67178077 -0.21141103
0.8510443 -0.5773266 0.47470427 0.48853594 -0.02515173 0.4874681 0.25606728 -0.26138735
0.8094268 -0.097500384 -0.6719347 0.11567834 0.32523698 -0.17371705 0.58933955 -0.6591458
0.31155738 -0.47725472 -0.017386656 -0.48592314 -0.06906897 -0.26578897 -0.63052285 -0.62007886
-0.12699383 -0.117867626 0.6499594 -0.057351887 0.5638823 -0.2113845 -0.3764624 -0.25761968
0.41595554 -0.605527 -0.3705673 -0.114754796 0.453355 -0.37164575 0.624174 -0.6120761
0.26724175 -0.011702047 0.6265845 -0.5623169 -0.58982956 0.6010579 0.48514208 -0.48490894
0.35914755 -0.16894649 0.5779644 0.4106072 0.62252325 0.42147925 -0.022828579 0.5674237
-0.6195837 0.419804 -0.18244304 0.47483292 -0.54680884 -0.42476362 0.4481175 -0.2881219
0.27465853 -0.531185 0.57515746 -0.7014358 -0.3903936 -0.3768977 0.40612975 0.15215282
0.6999933 0.13379939 0.5208888 -0.3653173 -0.6538037 0.8559035 0.58253384 0.57286507
0.27226534 -0.61511725 -0.21205941 -0.02607353 -0.6584672 -0.03768444 0.22579023 0.5225009
-0.27606887 0.14731058 0.19595401 0.7748839 -0.521017 0.6536806 -0.5577466 -0.3748045
-0.50157154 0.7961724 -0.6557583 0.26465595 0.50179785 -0.57924193 0.14154732 -0.011539221
-0.097486615 -0.5316823 -0.29610845 0.7108525 0.48366702 -0.67693067 0.61500186 -0.60822374
0.17017582 0.14564547 -0.026664995 0.14265548 -0.16653936 0.28813773 -0.19239867 -0.5380935
00000000: 46c3 86be 7823 e8bd ab4e 1abf 91e0 56be
00000010: 6890 06be 5c4f d13b ae39 14bf 8eac 19bf
00000020: 1e60 b33e 68c2 2dbe c1fd 563f e73e 5cbd
00000030: 1593 103f 349c ccbe 4e23 f43e 26cc 413f
00000040: 48a7 c0be 2855 3ebe 8518 e93e e056 2e3e
00000050: 109e 893e 453c 593d 978e c2be a3b6 4d3f
00000060: 7447 16bd 342b 593e c82a b3be fdc7 22be
00000070: 3e7b 7c3e e25a 3b3f 0de3 19bf db7c 4b3f
00000080: 85cc 84be 871b bbbd d49e 10bf 198d 403e
00000090: 59d4 12bf c07b a6bd 0139 393f dda5 3d3f
000000a0: 6bd1 2e3f 2c66 233f 034b 2a3f 315c e33e
000000b0: b2c0 063f b099 0e3f 927e 24bf 5824 bb3e
000000c0: 12ba 24bf 7fc4 873e 8436 0abf 1453 22bf
000000d0: 14ed f8be a041 5c3e beb3 5ebe c649 2b3f
000000e0: dcbd 05bf 1462 bf3e 6eb1 283f e21f 31bf
000000f0: 4a7e 09bf f4c2 11bf 57f5 d03e 886d ffbe
00000100: 6372 16bf ef32 d83e 6064 c73e 5c26 d73e
00000110: bbe6 aebe 88d1 ecbd dc6e 51be d86f 33bf
00000120: 82cc ca3e 9705 1d3e 15ff 503f 292f 9cbe
00000130: 3450 413f 47e4 d4be 9012 2c3e 4a73 21bf
00000140: dd4d db3e ee7f 1dbf 54b7 493f 4074 cfbe
00000150: 93b0 94be f89d 6dbe 9920 90be 9fae 06bf
00000160: 2d82 9e3e d023 2dbf 66d8 07bf cd5a 8b3e
00000170: 9434 383f 682a b2bd 7263 50be e7ac 86be
00000180: 7862 113f 98f9 d1be 1c2d 603e 3ca0 143f
00000190: 55ba e83e 92dc c0be 71fc bcbd 2080 023f
000001a0: 83db 2a3f 19f5 15bf c3cb 95be f489 7e3e
000001b0: c1b4 36be 1c8a 893e 01f0 fa3e a677 983e
000001c0: cc53 08bf fa43 0bbe 7cfa 7abe b16c 3f3f
000001d0: 3225 96be c04a 0dbe 0636 603f 4afa 983e
000001e0: d9a3 2cbf 5d78 aabe 318c 7ebd dff0 163f
000001f0: c854 7cbe 6238 c53e a783 e8be 841b febe
00000200: 63d3 5e3f a067 a6be 3448 42be be05 48be
00000210: 691a 073f 8915 d83e d3f9 2b3f 227c 58be
00000220: 0ade 593f adcb 13bf 700c f33e 6221 fa3e
00000230: 000b cebc 6b95 f93e 401b 833e 90d4 85be
00000240: 9836 4f3f 48ae c7bd ea03 2cbf c4e8 ec3d
00000250: 7685 a63e e2e2 31be f5de 163f c7bd 28bf
00000260: 7384 9f3e bb5a f4be 766e 8ebc ebca f8be
00000270: 0874 8dbd 7e15 88be f269 21bf 7dbd 1ebf
00000280: ac0a 02be 9564 f1bd bd63 263f d0e9 6abd
00000290: 975a 103f 2e75 58be aebf c0be bae6 83be
000002a0: 20f8 d43e d103 1bbf ffba bdbe 9004 ebbd
000002b0: 261e e83e 5a48 bebe dec9 1f3f 05b1 1cbf
000002c0: e9d3 883e f1b9 3fbc d767 203f 00f4 0fbf
000002d0: 12ff 16bf eede 193f 8b64 f83e fc45 f8be
000002e0: 30e2 b73e 4f00 2dbe 7af5 133f 1b3b d23e
000002f0: af5d 1f3f 21cc d73e 0003 bbbc ae42 113f
00000300: 0a9d 1ebf 8df0 d63e 59d2 3abe 4d1d f33e
00000310: aafb 0bbf 9e7a d9be a86f e53e b784 93be
00000320: 0ba0 8c3e bdfb 07bf 853d 133f 4c91 33bf
00000330: ace1 c7be bcf8 c0be 3df0 cf3e f3cd 1b3e
00000340: c332 333f b502 093e f858 053f df0a bbbe
00000350: ae5f 27bf 7e1c 5b3f f020 153f 49a7 123f
00000360: 5d66 8b3e 5378 1dbf 1a26 59be 2898 d5bc
00000370: 4e91 28bf 005b 1abd 8e35 673e 9ec2 053f
00000380: e658 8dbe 96d8 163e 2ba8 483e cb5e 463f
00000390: 5f61 05bf 9d57 273f 7bc8 0ebf 60e6 bfbe
000003a0: fe66 00bf f4d1 4b3f c7df 27bf fc80 873e
000003b0: d375 003f 3349 14bf c8f1 103e 000f 3dbc
000003c0: 10a7 c7bd 551c 08bf 879b 97be 6efa 353f
000003d0: 34a3 f73e 544b 2dbf c370 1d3f 8db4 1bbf
000003e0: 9242 2e3e 1624 153e 8c70 dabc 4714 123e
000003f0: 4b89 2abe ca86 933e 2804 45be 7fc0 09bf

weight f4 [150, 300]
-0.02486118 -0.039473202 -0.047013525 -0.034777902 -0.023967247 0.12464338 0.5505348 0.04317289
-0.07300788 0.25723103 0.09642933 0.09016591 0.14614968 0.16626307 0.13874167 0.10590364
0.007807523 0.02154801 0.12649314 -0.12775473 0.13604513 0.20490311 0.03086301 -0.19090725
0.21031575 0.22613075 0.25720218 0.67845786 -0.10922953 -0.18842767 0.016082332 -0.108257726
0.009019622 -0.05362981 -0.05607627 -0.25501734 0.39381585 -0.017322961 -0.18003842 -0.12200481
0.051938955 -0.14270313 0.12554602 -0.17644608 -0.20083368 0.0988 0.022240989 -0.10621663
0.03153637 0.0019033375 0.3227239 -0.02444261 0.035917416 0.17410986 0.024337001 -0.10947813
-0.043660153 0.16121195 -0.048907716 0.0020737462 0.046201363 0.32797 0.052920014 0.50165695
0.5670856 -0.17819525 -0.3080236 0.40569898 0.024855822 0.2192001 -0.17861974 -0.055095762
-0.15174574 0.09945762 -0.020553766 0.233727 0.040011335 -0.04621464 -0.13888131 0.046557635
0.046537437 -0.033796847 -0.13491677 -0.0018674918 0.03167188 -0.03427098 0.001839906 -0.032645002
0.14949147 0.0032736175 0.28837648 -0.2033417 -0.07680781 0.053512745 0.24030837 -0.04957045
-0.17348789 -0.038634315 -0.025126092 0.116110034 -0.11185467 -0.03923273 -0.025757078 -0.018297687
0.11207312 -0.039854255 0.13931862 0.19529432 -0.043888647 0.096120186 0.13149798 -0.19316465
0.3503207 -0.06339627 0.04806406 -0.12390376 0.022644207 -0.017185044 -0.19481686 0.01347721
-0.025809836 0.21022937 0.34327528 0.12125818 0.047313858 0.111225985 0.04847353 -0.036187552
0.011007386 0.005370252 -0.0214049 0.24921083 -0.21311337 0.08612878 -0.09107926 0.21065366
-0.025234422 0.01463186 -0.13871028 -0.0018007669 -0.0061259866 0.1268419 0.3455047 0.25735617
-0.063827164 0.02784238 0.3413953 -0.043518923 0.098781474 0.28501344 -0.19674167 -0.05068922
-0.15537736 -0.0118501 0.12875398 -0.05290064 0.05158878 -0.004298635 -0.047656164 0.5768853
-0.04587994 0.22398138 -0.17009263 -0.011011813 0.022352504 0.17668964 -0.051419616 0.32993546
-0.32192186 -0.031793 0.1466226 0.0168548 -0.25309595 -0.028012933 -0.1125597 0.041607298
0.17382571 0.21448489 -0.11445048 0.59858835 -0.01909586 0.08434418 -0.19748567 -0.04934816
-0.21574023 0.17554532 0.116810195 0.04326286 0.0368076 0.10448798 0.03708542 -0.089358665
0.0003148988 0.046194345 0.16432759 0.014004197 0.21926698 0.15991785 -0.1678432 -0.018029284
-0.14696358 0.039188623 -0.17095183 -0.0037256293 -0.048299193 0.016625226 0.14963305 -0.17020494
-0.15177183 -0.033818897 -0.11942197 0.30521715 0.2185736 -0.09541616 -0.07874216 0.049311798
-0.073744476 -0.003050629 -0.033361807 0.13407609 -0.007006768 -0.005316604 -0.18144408 -0.15793917
0.20145535 0.07060787 -0.24440978 -0.04806344 0.13705555 -0.11075253 0.23444107 0.16904926
0.019469649 -0.0037486847 -0.018939067 0.0963122 0.10893222 0.03851296 0.1376138 -0.0024929568
-0.030541942 0.19220074 0.17203763 0.15503207 -0.13469437 0.20965376 0.07807467 0.2327839
0.18845184 -0.079994306 0.26645365 0.12099972 0.3923155 0.18558338 -0.004103899 0.05207827
00000000: aca9 cbbc a7ae 21bd 4191 40bd 4673 0ebd
00000010: f656 c4bc 0745 ff3d d9ef 0c3f 0ed6 303d
00000020: 2885 95bd c9b3 833e be7c c53d e8a8 b83d
00000030: 43a8 153e de40 2a3e 4c12 0e3e 02e4 d83d
00000040: 40d6 ff3b 7485 b03c 6b87 013e 23d2 02be
00000050: 6a4f 0b3e 1fd2 513e 6cd4 fc3c 317d 43be
00000060: 035d 573e d28e 673e 01b0 833e 6aaf 2d3f
00000070: bbb3 dfbd 2ff3 40be 18bf 833c 3ab6 ddbd
00000080: 09c7 133c efaa 5bbd 3bb0 65bd a291 82be
00000090: 3ba2 c93e e2e8 8dbc fe5b 38be a8dd f9bd
000000a0: f1bd 543d c520 12be 238f 003e 48ae 34be
000000b0: 58a7 4dbe a857 ca3d bc32 b63c 1b88 d9bd
000000c0: 482c 013d 6979 f93a 113c a53e de3b c8bc
000000d0: 241e 133d db49 323e 645e c73c 1236 e0bd
000000e0: fdd4 32bd bf14 253e 7553 48bd b0e7 073b
000000f0: a43d 3d3d afeb a73e a8c2 583d 976c 003f
00000100: 862c 113f d178 36be 45b5 9dbe c7b7 cf3e
00000110: 709e cb3c fe75 603e 18e8 36be 18ac 61bd
00000120: 3c63 1bbe 70b0 cb3d 5f60 a8bc 2156 6f3e
00000130: ede2 233d 904b 3dbd e736 0ebe 38b3 3e3d
00000140: 0a9e 3e3d 906e 0abd 9f27 0abe a0c6 f4ba
00000150: 60ba 013d ba5f 0cbd 0029 f13a c4b6 05bd
00000160: 4b14 193e 308a 563b 15a6 933e ce38 50be
00000170: 6a4d 9dbd 2e30 5b3d 6613 763e 620a 4bbd
00000180: cfa6 31be 043f 1ebd 3cd5 cdbc 19cb ed3d
00000190: 1014 e5bd 80b2 20bd 8200 d3bc 08e5 95bc
000001a0: 9886 e53d 373e 23bd 8aa9 0e3e 3cfb 473e
000001b0: 95c4 33bd a9da c43d 68a7 063e f4cc 45be
000001c0: 3c5d b33e e7d5 81bd d2de 443d 41c1 fdbd
000001d0: 5880 b93c a6c7 8cbc 127e 47be 84cf 5c3c
000001e0: 266f d3bc 5e46 573e c7c1 af3e 3556 f83d
000001f0: 2dcc 413d 73ca e33d 2e8c 463d 6639 14bd
00000200: 5358 343c f0f8 af3b 5459 afbc 2031 7f3e
00000210: 643a 5abe 4964 b03d c387 babd 98b5 573e
00000220: 6bb8 cebc 78ba 6f3c 110a 0ebe b607 ecba
00000230: 80bc c8bb d8e2 013e fee5 b03e 30c4 833e
00000240: d1b7 82bd b415 e43c 5dcb ae3e e640 32bd
00000250: f14d ca3d 48ed 913e a676 49be 809f 4fbd
00000260: 3e1b 1fbe ec26 42bc 15d8 033e 57ae 58bd
00000270: c24e 533d 90db 8cbb 1c33 43bd c1ae 133f
00000280: 9bec 3bbd 605b 653e c32c 2ebe e46a 34bc
00000290: 991c b73c 21ee 343e 609d 52bd 4ded a83e
000002a0: f1d2 a4be 6039 02bd 3c24 163e 1413 8a3c
000002b0: cb95 81be 617b e5bc b385 e6bd 6a6c 2a3d
000002c0: 5eff 313e eda1 5b3e 0365 eabd 163d 193f
000002d0: ec6e 9cbc a4bc ac3d af39 4abe 4c21 4abd
000002e0: 02eb 5cbe 27c2 333e 2f3a ef3d 6634 313d
000002f0: 91c3 163d cbfd d53d e2e6 173d ad01 b7bd
00000300: 0019 a539 4836 3d3d 7e45 283e dc71 653c
00000310: 8687 603e 81c1 233e 16df 2bbe 26b2 93bc
00000320: 9f7d 16be 4084 203d ff0d 2fbe b029 74bb
00000330: 60d5 45bd a031 883c 6839 193e 344a 2ebe
00000340: 136a 1bbe af85 0abd 8193 f4bd 6c45 9c3e
00000350: c2d1 5f3e 8c69 c3bd 9243 a1bd 2bfb 493d
00000360: 5807 97bd 10ed 47bb 64a6 08bd 3e4b 093e
00000370: 0899 e5bb e836 aebb 7acc 39be ceba 21be
00000380: 504a 4e3e dc9a 903d 8f46 7abe 2bde 44bd
00000390: 4a58 0c3e 39d2 e2bd 5211 703e 401b 2d3e
000003a0: d07e 9f3c 7eac 75bb 1a26 9bbc 553f c53d
000003b0: db17 df3d c4bf 1d3d a2ea 0c3e e060 23bb
000003c0: 1833 fabc 45d0 443e a22a 303e bac0 1e3e
000003d0: 52ed 09be 7aaf 563e 9de5 9f3d e75e 6e3e
000003e0: 85f9 403e 0ed4 a3bd 9d6c 883e b4ce f73d
000003f0: 94dd c83e 9209 3e3e 007a 86bb 0650 553d

bias f4 [150]
-0.09266623 -0.050829954 0.012894675 -0.084369004 -0.022636134 0.12431387 0.042077795 -0.004567254
-0.032312155 -0.018762799 0.13103178 -0.030446203 -0.05286452 -0.04375962 0.043785848 -0.12144696
0.031286173 -0.07018565 0.13110751 -0.003021687 0.03236911 -0.074680425 -0.0149374055 0.093704805
-0.066913135 0.15619004 0.15934108 0.069403775 0.017966568 -0.04749171 0.039874464 0.12935482
-0.078387186 0.102484845 -0.050006185 -0.056161053 -0.03108951 -0.04553242 -0.011691425 -0.08634178
-0.0338509 -0.04310572 -0.024145223 -0.0016552061 0.0381856 -0.006249079 -0.027432473 -0.052706506
-0.03873948 0.12646548 0.05262251 -0.16697477 -0.018734269 -0.006118435 0.10192606 -0.055562533
-0.07724785 0.020242047 0.0004275702 0.10641011 -0.010953952 -0.06434947 0.16106454 0.030099161
-0.018928336 0.16026919 -0.07542381 -0.0089114355 0.04040698 -0.10865356 -0.012828622 0.12661396
0.03642252 -0.119195096 -0.032214884 0.04473903 -0.02178303 0.017070629 -0.11896277 -0.04238309
0.1541598 -0.025167989 -0.015427544 0.101762965 0.044120613 0.018355101 -0.02434457 -0.08588102
-0.006822183 0.019274704 0.057230543 -0.01171588 0.034247246 -0.014583636 0.037453085 -0.006995901
0.048411917 0.06751886 -0.044058256 0.017422484 -0.07786986 -0.047735445 -0.018625602 -0.072185695
0.053750493 -0.121245265 -0.037855215 0.12684721 -0.0053786547 0.14702569 0.13121308 -0.06253114
0.0046837553 -0.012441274 -0.04447328 -0.028351707 0.08921216 0.04890175 0.050868373 0.037801005
-0.049357936 -0.011749864 0.060347594 0.15407155 -0.004718556 0.05108451 0.12813851 -0.0009611755
0.11062185 -0.016471598 -0.0041249543 -0.053661544 -0.032309934 0.12378688 -0.048376855 -0.026234994
0.042648613 0.083796345 0.04946156 0.16193911 0.12181444 -0.024590138 0.017877553 0.13313657
-0.054048758 -0.01583487 0.042978503 -0.021665404 -0.036887653 0.048929118
00000000: cbc7 bdbd 1233 50bd 3044 533c a8c9 acbd
00000010: 6a6f b9bc 4598 fe3d c459 2c3d e7a8 95bb
00000020: c059 04bd 71b4 99bc 322d 063e 516a f9bc
00000030: 7888 58bd 4a3d 33bd ca58 333d 2fb9 f8bd
00000040: ee25 003d 7ebd 8fbd 0c41 063e 7f07 46bb
00000050: 7995 043d 0df2 98bd 05bc 74bc 4ee8 bf3d
00000060: c109 89bd 48f0 1f3e 4f2a 233e 9123 8e3d
00000070: a02e 933c ab86 42bd 6853 233d 9775 043e
00000080: 7689 a0bd 93e3 d13d 49d3 4cbd 2209 66bd
00000090: 6eaf febc 3480 3abd 648d 3fbc f6d3 b0bd
000000a0: 3ea7 0abd a08f 30bd 34cc c5bc 80f3 d8ba
000000b0: 8168 1c3d 13c5 ccbb 11ba e0bc c7e2 57bd
000000c0: 4aad 1ebd 2b80 013e b38a 573d 6ffb 2abe
000000d0: 9c78 99bc 277d c8bb 9cbe d03d 8a95 63bd
000000e0: 1f34 9ebd a6d2 a53c 802b e039 8bed d93d
000000f0: 3478 33bc a8c9 83bd 1aee 243e 8492 f63c
00000100: 990f 9bbc 9b1d 243e cc77 9abd 4501 12bc
00000110: ca81 253d c285 debd 242f 52bc 17a7 013e
00000120: c82f 153d 8f1c f4bd c1f3 03bd 4640 373d
00000130: 5372 b2bc b4d7 8b3c c1a2 f3bd e499 2dbd
00000140: 11dc 1d3e 192d cebc cfc3 7cbc 1a69 d03d
00000150: d1b7 343d 705d 963c 436e c7bc 63e2 afbd
00000160: 9e8c dfbb fce5 9d3c 936a 6a3d f6f3 3fbc
00000170: d746 0c3d 34f0 6ebc 6868 193d df3d e5bb
00000180: 934b 463d 5447 8a3d 6e76 34bd 99b9 8e3c
00000190: 3c7a 9fbd 3e86 43bd b894 98bc 18d6 93bd
000001a0: 7a29 5c3d 704f f8bd 120e 1bbd 3ce4 013e
000001b0: 6d3f b0bb e78d 163e b95c 063e 5410 80bd
000001c0: 307a 993b 7cd6 4bbc 9d29 36bd d741 e8bc
000001d0: ddb4 b63d 344d 483d 5b5b 503d 3ad5 1a3d
000001e0: 8c2b 4abd 8082 40bc 0a2f 773d efc4 1d3e
000001f0: 1e9e 9abb fe3d 513d be36 033e 65f7 7bba
00000200: b58d e23d 72ef 86bc a02a 87bb 35cc 5bbd
00000210: 6c57 04bd fa83 fd3d cf26 46bd c5ea d6bc
00000220: 50b0 2e3d 6b9d ab3d 3498 4a3d 5ed3 253e
00000230: d979 f93d 4271 c9bc f273 923c f454 083e
00000240: 3b62 5dbd 21b8 81bc 3a0a 303d a57b b1bc
00000250: 8217 17bd e669 483d

weight f4 [5, 150]
0.20691378 0.056286305 0.061174273 0.05404688 0.008382723 -0.05243142 -0.04506329 0.20922744
0.1917513 -0.024237974 -0.1622625 0.36464682 0.30546957 0.0032326207 -0.014145421 0.31134346
0.0058686137 -0.020789074 0.0066831578 0.24040842 -0.0049800533 0.26531234 -0.010197499 0.21252933
0.05201128 0.074294604 0.030149005 0.22966562 0.023990272 0.04541497 -0.0588393 -0.30545866
0.005879581 0.008058085 0.11030545 0.07511281 -0.061082028 0.07416664 -0.04385302 0.211674
0.016725488 0.032772973 0.029739775 0.065530255 0.018591851 -0.033164144 -0.07387634 0.23686804
0.11674651 0.03361819 -0.014478603 0.7208188 0.05434665 0.073690675 -0.04873494 0.26102853
0.38071623 0.38930362 -0.056854706 0.21684253 0.07071215 0.26621917 0.15399821 0.17369826
-0.008405963 0.080897 0.26621366 -0.016229002 -0.3251506 0.71559954 0.002715677 0.27333322
0.21499535 0.118936986 -0.070513524 0.31720245 0.061358932 0.05742132 0.27509055 -0.07307024
-0.02781938 0.10311481 -0.18248518 0.2636764 0.26250997 -0.076281644 0.102616616 0.38323382
0.05645472 -0.03177528 0.34072208 0.07595401 0.011064876 -0.055253103 -0.015539825 -0.048199777
-0.26499006 -0.3601229 -0.038509868 -0.05970937 0.06405435 0.097375326 -0.06678027 0.14291202
-0.042840794 0.30178466 -0.18841429 0.06382331 -0.0069435765 0.19668756 0.18603821 -0.04442494
0.042949133 0.05483471 -0.079179935 0.2614216 -0.32276973 -0.00589364 -0.26940918 0.25782853
0.016758204 -0.07180296 0.3370273 -0.21503663 0.15980949 0.32451692 -0.2593977 0.050332695
0.2521108 -0.0518948 -0.01890222 -0.024005502 0.032333627 -0.18162027 -0.074612826 -0.030974535
0.056454927 0.3390512 -0.03930753 0.040508185 0.07435393 0.32251227 0.07877675 -0.3247263
-0.009068333 0.05746766 -0.0073797554 0.009715087 0.19048353 0.0046182424 -0.4257533 0.017363325
-0.071339294 -0.3373881 -0.063240945 0.26964635 0.024564348 -0.011146836 -0.3803478 -0.045002323
0.23526989 0.06147681 -0.3562591 -0.0654853 0.050595228 -0.43214694 -0.07985831 -0.2958861
0.21676399 -0.18458161 0.06789094 -0.3924765 -0.3046648 0.1788253 -0.37462726 0.16061145
0.23692994 0.017052732 -0.067236364 -0.032564 0.037680574 0.2648998 -0.42809358 0.29143474
-0.23142526 -0.08209702 0.07533169 -0.00071331114 -0.05070132 -0.5594649 -0.067422695 0.04292679
-0.07151478 0.07997799 -0.4043517 0.03444018 0.008784905 -0.41058883 -0.5002787 0.19990379
-0.2675265 -0.03478567 -0.054550216 -0.037006818 -0.25760424 -0.28766307 -0.4914031 0.020296691
0.013830401 0.12340043 -0.04979797 -0.40109473 0.15400968 -0.097630575 -0.083470255 0.21518764
-0.37951487 0.04390048 0.19373968 -0.6158964 0.04615122 0.10465613 0.1344908 -0.41007093
-0.07794259 0.09693204 -0.048628844 0.063821636 -0.4119186 -0.056606755 0.27852443 -0.30889973
-0.3284294 0.11792525 0.021492768 -0.045902483 -0.53774154 -0.0005686561 -0.39738518 -0.024732001
0.1062125 0.010938296 -0.018677713 0.05595717 0.03574068 -0.07125077 -0.07883339 0.1449133
0.04893084 -0.37090433 -0.38178197 -0.34913647 0.07940501 -0.45633668 0.019110613 -0.07781517
00000000: 35e1 533e 788c 663d e091 7a3d 4360 5d3d
00000010: b057 093c 54c2 56bd 4994 38bd b83f 563e
00000020: 745a 443e b78e c6bc 2428 26be fdb2 ba3e
00000030: 8266 9c3e 60da 533b 32c2 67bc 6968 9f3e
00000040: 804d c03b d94d aabc 64fe da3b a02d 763e
00000050: b72f a3bb 05d7 873e 6913 27bc 4aa1 593e
00000060: c809 553d c527 983d 0cfb f63c 772d 6b3e
00000070: 3f87 c43c 0c05 3a3d 7a01 71bd 1465 9cbe
00000080: 80a9 c03b 0f06 043c d3e7 e13d bfd4 993d
00000090: 2631 7abd aee4 973d 399f 33bd 12c1 583e
000000a0: e403 893c f43c 063d d4a0 f33c ba34 863d
000000b0: f04d 983c 20d7 07bd 7b4c 97bd 898d 723e
000000c0: cb18 ef3d 3ab3 093d aa37 6dbc 9587 383f
000000d0: 989a 5e3d 23eb 963d 4a9e 47bd 88a5 853e
000000e0: 3ded c23e ce52 c73e 7be0 68bd f80b 5e3e
000000f0: 88d1 903d e14d 883e b5b1 1d3e f5dd 313e
00000100: 2ab9 09bc 54ad a53d 284d 883e aff2 84bc
00000110: 247a a6be 8831 373f 80f9 313b 55f2 8b3e
00000120: be27 5c3e 3c95 f33d 6569 90bd 5c68 a23e
00000130: 8153 7b3d 9e32 6b3d abd8 8c3e daa5 95bd
00000140: 78e5 e3bc dc2d d33d 65dd 3abe 9800 873e
00000150: b567 863e 8d39 9cbd a928 d23d 3937 c43e
00000160: 113d 673d cc26 02bd 2073 ae3e c78d 9b3d
00000170: 7449 353c 1451 62bd c09a 7ebc 216d 45bd
00000180: c7ac 87be 0762 b8be 86bc 1dbd d091 74bd
00000190: ed2e 833d b76c c73d 18c4 88bd 8757 123e
000001a0: d479 2fbd 8583 9a3e adef 40be ccb5 823d
000001b0: f186 e3bb 7768 493e cd80 3e3e edf6 35bd
000001c0: 6eeb 2f3d 5c9a 603d 1729 a2bd 0dd9 853e
000001d0: 1342 a5be 701f c1bb 00f0 89be 1a02 843e
000001e0: 8048 893c 6e0d 93bd d88e ac3e 9032 5cbe
000001f0: 19a5 233e 1527 a63e c6cf 84be a829 4e3d
00000200: ab14 813e a48f 54bd d4d8 9abc 30a7 c4bc
00000210: 4470 043d aafa 39be 9cce 98bd 4fbe fdbc
00000220: 483d 673d 1e98 ad3e ef00 21bd e9eb 253d
00000230: e046 983d 5420 a53e b455 a13d 8742 a6be
00000240: 5893 14bc 3663 6b3d e0d1 f1bb 072c 1f3c
00000250: 1d0e 433e a054 973b 56fc d9be 883d 8e3c
00000260: 561a 92bd 22be acbe 7884 81bd 160f 8a3e
00000270: 2c3b c93c 38a1 36bc f2bc c2be 5b54 38bd
00000280: 97ea 703e 1ccf 7b3d 9867 b6be 281d 86bd
00000290: f13c 4f3d 5d42 ddbe c18c a3bd 627e 97be
000002a0: 61f7 5d3e f602 3dbe 680a 8b3d aef2 c8be
000002b0: 06fd 9bbe fb1d 373e 25cf bfbe 5477 243e
000002c0: c39d 723e 2cb2 8b3c 38b3 89bd d461 05bd
000002d0: f256 1a3d f2a0 873e 152f dbbe ef36 953e
000002e0: befa 6cbe 7b22 a8bd 8047 9a3d 80fd 3aba
000002f0: 30ac 4fbd 1739 0fbf e914 8abd 00d4 2f3d
00000300: 5776 92bd 80cb a33d 3007 cfbe 2511 0d3d
00000310: 90ee 0f3c b338 d2be 4412 00bf 94b3 4c3e
00000320: 3cf9 88be 6b7b 0ebd 0c70 5fbd 7694 17bd
00000330: b4e4 83be 9348 93be 3099 fbbe 3f45 a63c
00000340: e898 623c 5db9 fc3d f5f8 4bbd 4a5c cdbe
00000350: b7b4 1d3e 8af2 c7bd 74f2 aabd 265a 5c3e
00000360: c64f c2be fdd0 333d b263 463e 63ab 1dbf
00000370: 1009 3d3d f455 d63d f5b7 093e d1f4 d1be
00000380: 5da0 9fbd 4e84 c63d 0a2f 47bd ebb4 823d
00000390: ffe6 d2be 7cdc 67bd c19a 8e3e 1b28 9ebe
000003a0: e627 a8be cb82 f13d 9a11 b03c 3e04 3cbd
000003b0: 6ea9 09bf dd11 15ba 1276 cbbe c49a cabc
000003c0: f085 d93d 8a36 333c 0102 99bc 5833 653d
000003d0: d264 123d eceb 91bd 6673 a1bd 2764 143e
000003e0: b46b 483d 2ce7 bdbe ed78 c3be 04c2 b2be
000003f0: 189f a23d f6a4 e9be dc8d 9c3c 8f5d 9fbd

bias f4 [5]
-0.003915333 0.15735671 0.0057571186 -0.07244112 0.007683628
00000000: 324c 80bb 1e22 213e 36a6 bc3b 035c 94bd
00000010: f1c6 fb3b
